…
{\colortbl;\red255\green255\blue255;\red255\green255\blue255;\red0\green0\blue0;}
{\*\expandedcolortbl;;\cssrgb\c100000\c100000\c100000;\cssrgb\c0\c0\c0;}
\margl1440\margr1440\vieww10800\viewh8400\viewkind0
\deftab720
\pard\pardeftab720\partightenfactor0

\f0\fs28 \cf0 \cb2 \expnd0\expndtw0\kerning0
Loading 29 samples into memory for training.\
Loading 14 samples into memory for testing.\
Loading Conv3D\
_________________________________________________________________\
Layer (type)                 Output Shape              Param #   \
=================================================================\
conv3d_1 (Conv3D)            (None, 38, 78, 78, 32)    2624      \
_________________________________________________________________\
max_pooling3d_1 (MaxPooling3 (None, 38, 39, 39, 32)    0         \
_________________________________________________________________\
conv3d_2 (Conv3D)            (None, 36, 37, 37, 64)    55360     \
_________________________________________________________________\
max_pooling3d_2 (MaxPooling3 (None, 36, 18, 18, 64)    0         \
_________________________________________________________________\
conv3d_3 (Conv3D)            (None, 34, 16, 16, 128)   221312    \
_________________________________________________________________\
conv3d_4 (Conv3D)            (None, 32, 14, 14, 128)   442496    \
_________________________________________________________________\
max_pooling3d_3 (MaxPooling3 (None, 32, 7, 7, 128)     0         \
_________________________________________________________________\
conv3d_5 (Conv3D)            (None, 31, 6, 6, 256)     262400    \
_________________________________________________________________\
conv3d_6 (Conv3D)            (None, 30, 5, 5, 256)     524544    \
_________________________________________________________________\
max_pooling3d_4 (MaxPooling3 (None, 30, 2, 2, 256)     0         \
_________________________________________________________________\
flatten_1 (Flatten)          (None, 30720)             0         \
_________________________________________________________________\
dense_1 (Dense)              (None, 1024)              31458304  \
_________________________________________________________________\
dropout_1 (Dropout)          (None, 1024)              0         \
_________________________________________________________________\
dense_2 (Dense)              (None, 1024)              1049600   \
_________________________________________________________________\
dropout_2 (Dropout)          (None, 1024)              0         \
_________________________________________________________________\
dense_3 (Dense)              (None, 5)                 5125      \
=================================================================\
Total params: 34,021,765\
Trainable params: 34,021,765\
Non-trainable params: 0\
_________________________________________________________________\
None\
Train on 29 samples, validate on 14 samples\
Epoch 1/80\
29/29 [==============================] - 102s 4s/step - loss: 1.6122 - acc: 0.2759 - val_loss: 1.6134 - val_acc: 0.1429\
…
